models/sentiment/senti_trained.pt (torch_old, 404931 bytes, 6 tensors)

encoder.weight f4 [125, 100]
0.32790425 0.82055 1.0959332 2.6913142 -1.3015163 0.15833126 -1.1824621 -0.21960595
0.7126985 -0.6328994 -0.07486829 0.04321619 1.1808475 0.7785039 0.158814 -0.19108853
1.1305318 -0.9668775 -2.4132202 0.9172409 2.428077 0.029016694 -1.0356842 -0.040985033
-0.34516326 0.6416406 0.17338228 0.14798151 -1.135841 0.13540919 -1.681632 0.16724637
0.8869732 -0.15243101 0.26891312 2.0064666 0.058473278 -0.24113765 -1.9817988 -0.3564091
0.00069058733 -0.09978846 1.2681699 -1.0467614 -0.3328157 1.0219756 -0.06953712 1.103803
-0.038767267 -1.455032 -0.59852 0.47950152 -1.5797983 0.8354468 -0.8562127 -0.21149988
-0.3796202 -0.88470066 -0.19125253 0.5821958 -0.28141713 1.7627834 0.15462323 1.0832626
0.49341345 0.74453694 -0.7682719 -0.64064413 0.25784385 0.06149797 0.5699289 0.6672478
-0.15250191 -1.246599 0.6296003 -0.1643668 1.3228381 -1.4709587 1.129514 -0.6383744
1.0434251 0.73700935 0.3207348 0.74797 0.4877437 -1.99679 0.19514702 1.2724886
0.8134353 1.153662 0.14346394 0.4437959 -0.95006055 0.61953247 -1.3035332 -1.1255786
-0.75408953 1.8930387 -0.28453624 1.900962 -0.563621 0.08802325 -0.8042937 -1.2757345
-0.38103694 0.25052354 0.5403865 -0.24412777 -0.5657448 0.87970114 -0.3047334 2.7620666
-0.07439469 0.18563215 -2.31968 -1.0553591 0.7964096 -1.0343955 2.5690327 -0.97720164
1.1327316 -0.24681173 0.99335647 -0.5664655 0.57280207 0.77215683 -0.1670252 0.1565531
0.49564993 1.1368513 1.8820459 0.32109833 0.26967677 1.528772 0.48607272 1.4650878
-0.26727584 -1.5264112 -0.5778434 -1.5076834 0.2236817 -0.8866674 -0.66091126 2.0248106
0.35067722 1.0504837 -1.4948167 -0.42211345 -1.6257668 0.5649107 0.21419033 1.4529836
0.6272884 -0.1462878 -0.15006773 -0.88428193 -0.9186766 -0.8425503 0.43105435 -1.8429978
-0.020444421 -0.3140398 -1.6870264 -1.9339083 1.8427181 0.9746071 -0.5099113 -2.0037622
0.33242843 0.7844664 0.6195451 -0.16804224 0.7425423 0.6724157 0.35551465 -0.4462127
0.3760094 0.90842795 -0.18190046 1.0536226 -1.466593 0.6711007 -0.74987847 -0.5634265
0.47148767 -0.3265873 -0.42481142 0.67942065 -0.22117369 0.7903119 0.16785818 -1.7605419
1.137178 2.0404575 -1.0123757 -0.298054 -0.44461256 -0.6567022 0.49431488 -1.3459721
2.1037376 -0.9342319 -0.12634186 -0.3029544 0.8596002 0.6105199 -0.07529869 0.84955204
1.0300372 -0.8134426 -0.6870547 0.74931717 2.7132802 1.0904137 2.992146 0.7302718
0.10125848 -0.4472632 -1.240862 0.4267663 -0.4436004 -1.426966 -0.9590461 -0.8932971
0.14061713 -0.79408604 -1.103096 0.820548 1.4827101 -0.60238165 -0.004102653 -0.87863195
1.7482373 0.95027953 -2.716767 -0.61274177 -0.1782744 -1.0061042 -0.70844346 -1.6335623
0.52709895 -0.42719164 0.26495394 -0.7706349 -0.6786115 0.18760952 0.38434252 -0.8230999
1.0611838 0.3471496 0.7449353 -1.3230397 -2.242585 -0.15163364 1.3412356 -0.6649757
00000000: 11e3 a73e 910f 523f 8a47 8c3f 7e3e 2c40
00000010: 1698 a6bf 9721 223e eb5a 97bf 62e0 60be
00000020: 6973 363f b205 22bf 8c54 99bd 7603 313d
00000030: 0326 973f 084c 473f 23a0 223e b6ac 43be
00000040: 44b5 903f 4985 77bf 3372 1ac0 4dd0 6a3f
00000050: 9d65 1b40 6bb4 ed3c 4d91 84bf ecdf 27bd
00000060: 3db9 b0be 8f42 243f 208b 313e 7788 173e
00000070: 3d63 91bf b5a8 0a3e b83f d7bf a242 2b3e
00000080: ad10 633f e016 1cbe fbae 893e f369 0040
00000090: ad81 6f3d caec 76be 95ab fdbf 417b b6be
000000a0: 8808 353a e45d ccbd 6453 a23f 47fc 85bf
000000b0: d266 aabe 19d0 823f 7a69 8ebd 6b49 8d3f
000000c0: 6dca 1ebd 7d3e babf 9b38 19bf 3981 f53e
000000d0: d536 cabf d7df 553f c130 5bbf 6d93 58be
000000e0: 945d c2be be7b 62bf b4d7 43be c90a 153f
000000f0: e815 90be e3a2 e13f 8d55 1e3e 59a8 8a3f
00000100: b0a0 fc3e f999 3e3f 78ad 44bf 4101 24bf
00000110: 1c04 843e 4ce5 7b3d dce6 113f c0d0 2a3f
00000120: 7629 1cbe 8e90 9fbf 7c2d 213f c54f 28be
00000130: c252 a93f 6048 bcbf ea93 903f 816c 23bf
00000140: f48e 853f a5ac 3c3f 5a37 a43e f67a 3f3f
00000150: 8bb9 f93e d196 ffbf 9fd4 473e e8e0 a23f
00000160: 4c3d 503f 32ab 933f 36e8 123e 3739 e33e
00000170: 2b37 73bf ae99 1e3f 2dda a6bf f612 90bf
00000180: 030c 41bf 184f f23f bcae 91be b952 f33f
00000190: 7749 10bf 8945 b43d 31e6 4dbf 454b a3bf
000001a0: 4617 c3be 9f44 803e c556 0a3f a1fc 79be
000001b0: a7d4 10bf 1834 613f 0406 9cbe b3c5 3040
000001c0: 3e5c 98bd 5b16 3e3e a375 14c0 0216 87bf
000001d0: 80e1 4b3f 1267 84bf 086b 2440 e329 7abf
000001e0: 59fd 903f 37bc 7cbe 9c4c 7e3f e203 11bf
000001f0: 28a3 123f 12ac 453f a708 2bbe 754f 203e
00000200: d4c5 fd3e 5884 913f e1e6 f03f 0067 a43e
00000210: 1313 8a3e cdae c33f 86de f83e ff87 bb3f
00000220: 61d8 88be 7161 c3bf 8ced 13bf c5fb c0bf
00000230: d10c 653e a2fc 62bf 7b31 29bf 7f96 0140
00000240: f78b b33e 4076 863f 2756 bfbf 411f d8be
00000250: 2019 d0bf fd9d 103f b654 5b3e 5efb b93f
00000260: f995 203f 78cc 15be 5bab 19be 4d60 62bf
00000270: 642e 6bbf 60b1 57bf 28b3 dc3e 5ae7 ebbf
00000280: 0f7b a7bc d3c9 a0be 7bf0 d7bf 4f8a f7bf
00000290: 30de eb3f da7f 793f 8c89 02bf a43d 00c0
000002a0: 0f34 aa3e cad2 483f 829a 1e3f 4413 2cbe
000002b0: 4117 3e3f 6f23 2c3f 0406 b63e fe75 e4be
000002c0: 4e84 c03e bc8e 683f 1d44 3abe 1bdd 863f
000002d0: 52b9 bbbf 41cd 2b3f 09f8 3fbf b83c 10bf
000002e0: d566 f13e 7336 a7be e280 d9be 83ee 2d3f
000002f0: 5b7b 62be e151 4a3f 04e3 2b3e 7059 e1bf
00000300: 0c8f 913f db96 0240 8795 81bf 899a 98be
00000310: 42a4 e3be a31d 28bf d716 fd3e d048 acbf
00000320: a3a3 0640 d229 6fbf c35f 01be d71c 9bbe
00000330: c20e 5c3f 084b 1c3f 3336 9abd 3e7c 593f
00000340: 42d8 833f c63d 50bf d1e2 2fbf 40d3 3f3f
00000350: 62a6 2d40 ad92 8b3f 527f 3f40 18f3 3a3f
00000360: 9b60 cf3d afff e4be 91d4 9ebf 1d81 da3e
00000370: 971f e3be d2a6 b6bf 0c84 75bf 1eaf 64bf
00000380: f0fd 0f3e 3949 4bbf 4032 8dbf 6f0f 523f
00000390: 72c9 bd3f af35 1abf 8c6f 86bb 06ee 60bf
000003a0: 3dc6 df3f 8545 733f 83df 2dc0 a5dc 1cbf
000003b0: 908d 36be 06c8 80bf 8d5c 35bf 9218 d1bf
000003c0: f5ef 063f ddb8 dabe 0ba8 873e 5448 45bf
000003d0: 7cb9 2dbf b61c 403e 8bc8 c43e adb6 52bf
000003e0: dfd4 873f 98bd b13e 14b4 3e3f 5d59 a9bf
000003f0: 8386 0fc0 d945 1bbe 9cad ab3f d93b 2abf

rnn.weight_ih_l0 f4 [384, 100]
0.0409747 -0.009683938 -0.1291747 -0.1427615 0.053611055 -0.02918757 -0.040671177 -0.046847172
0.014495008 -0.05670264 0.005153745 0.08565266 -0.027880399 0.03657591 -0.03451648 -0.010252605
-0.06026301 0.10520854 0.03348972 -0.22278792 -0.008607301 0.008149971 0.077456184 0.07967723
-0.060610946 -0.08064333 -0.24473901 0.13052438 -0.1978001 0.12195673 0.29015172 0.07851175
-0.0043627243 0.06669016 -0.18112504 0.004576176 -0.10713986 -0.0066755773 0.034276478 -0.013760007
0.031224856 -0.05835229 -0.19262764 0.010479948 0.12624116 0.057216715 0.048029196 -0.16512984
0.009021944 0.18295571 -0.030901985 -0.10413141 -0.14110436 -0.13380396 0.24531528 0.15327176
0.11571964 -0.24699694 -0.02243252 -0.03222064 0.08139986 -0.16576044 -0.21257395 -0.1138052
0.02651211 -0.12881158 0.106535695 0.1817121 -0.19607422 0.044212528 0.06343564 0.008893274
0.05227111 0.08601884 0.18376136 0.0071894946 -0.37865016 0.06371167 -0.06005421 -0.08401554
-0.14052752 -0.17563644 -0.042070795 -0.3044632 -0.08918856 0.15455209 -0.17139566 -0.057673816
-0.050083622 -0.09690979 -0.033236038 -0.07429607 0.10586378 0.109042324 -0.040825307 0.016727617
0.15695593 -0.01798955 0.13303144 -0.053439125 -0.19503848 0.08507266 0.16843191 0.059451014
-0.17732169 -0.28714147 -0.09440758 0.18912813 -0.08199078 -0.2260778 0.047163535 -0.3158424
0.018674646 -0.23964627 -0.12294459 -0.13042732 -0.110221915 0.14797235 0.11386517 0.17494713
0.12383116 -0.110681444 -0.045580484 -0.004695068 -0.0497057 -0.0780807 0.19658215 0.022526005
0.08859671 -0.030633062 -0.046390645 0.15165655 -0.09340485 0.0496773 0.1657432 0.017789071
0.04961153 0.007015675 0.12528744 0.11731876 -0.11312285 -0.051584896 -0.15064874 -0.00031093977
0.07395408 0.068355456 0.14194134 0.16616753 0.08394445 0.019340405 -0.21010639 -0.008941941
-0.028163018 0.049805883 0.056539018 -0.18260927 0.14290902 -0.17792304 -0.16994075 0.019586774
0.102372155 -0.029693382 0.11376257 0.047408983 -0.30013913 -0.10752211 0.20312779 -0.14904048
-0.14171484 -0.2594073 0.091071814 0.15442185 0.016143093 -0.084144294 0.11614682 -0.057865173
0.07372884 -0.040788285 0.005237874 -0.056356583 0.16041422 0.17856492 -0.015106299 0.054723144
0.04771364 0.08236817 -0.07612663 0.20507216 0.04543703 -0.102628835 -0.074572794 0.083797425
-0.07161856 0.19518529 -0.03650837 0.25529683 0.17497973 -0.08027381 -0.14836451 0.0073393127
-0.051701203 0.104377486 0.12210795 0.021797804 0.0753654 -0.21121295 0.0919546 0.0834403
0.065099426 0.07153185 0.08226836 -0.046528284 0.16600314 0.29593533 -0.23254374 -0.15303485
-0.30060703 -0.062547214 -0.17876558 0.0014539963 0.20491381 0.046782292 -0.042604122 0.0039040784
-0.038079895 -0.087985784 0.003565974 0.31366336 -0.11063385 -0.14293669 0.14664824 -0.13660587
-0.050153304 -0.006207729 -0.23762065 0.26168513 0.18117355 0.02701767 -0.037777685 -0.040303316
-0.070221424 -0.0012892932 0.17449324 -0.13021937 -0.17562848 0.07533486 -0.22621 -0.09208984
0.17827894 0.26516277 -0.3418256 0.16223626 -0.13698837 -0.0785719 0.05952275 0.08778783
00000000: 16d5 273d 61a9 1ebc 5f46 04be 1230 12be
00000010: 4497 5b3d c51a efbc d296 26bd d2e2 3fbd
00000020: 787c 6d3c 0741 68bd bfe0 a83b a96a af3d
00000030: 6f65 e4bc 9fd0 153d 2761 0dbd 8bfa 27bc
00000040: 59d6 76bd 9377 d73d 842c 093d 8422 64be
00000050: a305 0dbc 7587 053c 59a1 9e3d d12d a33d
00000060: 2f43 78bd 5528 a5bd dd9c 7abe 2fa8 053e
00000070: 1c8c 4abe 73c4 f93d c48e 943e c5ca a03d
00000080: 2ff5 8ebb da94 883d d878 39be bff3 953b
00000090: 256c dbbd cdbe dabb 7e65 0c3d a771 61bc
000000a0: 45cb ff3c d002 6fbd 2e40 45be 16b4 2b3c
000000b0: 5d45 013e 135c 6a3d 43ba 443d cc17 29be
000000c0: c7d0 133c be58 3b3e 2926 fdbc d942 d5bd
000000d0: a97d 10be e803 09be ee33 7b3e 46f3 1c3e
000000e0: 6bfe ec3d c4ec 7cbe 67c4 b7bc caf9 03bd
000000f0: f8b4 a63d 1bbd 29be fcac 59be b312 e9bd
00000100: ed2f d93c 2fe7 03be 632f da3d bd12 3a3e
00000110: aec7 48be 3218 353d 8bea 813d 18b5 113c
00000120: 3b1a 563d a52a b03d f02b 3c3e da95 eb3b
00000130: 6fde c1be 447b 823d 67fb 75bd 5710 acbd
00000140: 72e6 0fbe 0ada 33be 6d52 2cbd 9ae2 9bbe
00000150: 7ea8 b6bd e742 1e3e 5882 2fbe 613b 6cbd
00000160: 7c24 4dbd a478 c6bd 8322 08bd 8a28 98bd
00000170: 1ccf d83d 9551 df3d 7038 27bd 5b08 893c
00000180: 0eb9 203e d25e 93bc 6539 083e fce2 5abd
00000190: 2bb8 47be 933a ae3d 6a79 2c3e e882 733d
000001a0: d193 35be 3504 93be c358 c1bd ceaa 413e
000001b0: c8ea a7bd f080 67be 8d2e 413d 18b6 a1be
000001c0: 92fb 983c d565 75be 60ca fbbd bd8e 05be
000001d0: 07bc e1bd 1086 173e 2432 e93d 5725 333e
000001e0: 319b fd3d f4ac e2bd 9ab2 3abd 16d9 99bb
000001f0: 3498 4bbd c6e8 9fbd d54c 493e 7588 b83c
00000200: 3172 b53d 30f2 fabc 1e04 3ebd db4b 1b3e
00000210: 0b4b bfbd 6d7a 4b3d 96b8 293e 63ba 913c
00000220: 7635 4b3d bfe3 e53b 5a4b 003e d144 f03d
00000230: f4ac e7bd af4a 53bd aa43 1abe a105 a3b9
00000240: 3d75 973d f2fd 8b3d 1259 113e d227 2a3e
00000250: 11eb ab3d c56f 9e3c 2126 57be 3881 12bc
00000260: 21b6 e6bc 4101 4c3d 7595 673d edfd 3abe
00000270: be56 123e 7531 36be f304 2ebe 7174 a03c
00000280: 7ea8 d13d 893f f3bc 5afc e83d ec2f 423d
00000290: d6ab 99be 8d34 dcbd bb00 503e 119e 18be
000002a0: b21d 11be 09d1 84be dc83 ba3d c320 1e3e
000002b0: 853e 843c d853 acbd 62de ed3d 0804 6dbd
000002c0: 25ff 963d 9e11 27bd 79a2 ab3b 29d6 66bd
000002d0: a043 243e b9d9 363e 6980 77bc 6025 603d
000002e0: 616f 433d a5b0 a83d 47e8 9bbd 70fe 513e
000002f0: 2e1c 3a3d 112f d2bd 9fb9 98bd fc9d ab3d
00000300: c0ac 92bd a7de 473e cd89 15bd 44b6 823e
00000310: e32d 333e 9866 a4bd deec 17be 9e7e f03b
00000320: a4c4 53bd ddc3 d53d bc13 fa3d 4f91 b23c
00000330: 2d59 9a3d 3548 58be b152 bc3d bfe2 aa3d
00000340: d952 853d 4a7f 923d 507c a83d 7194 3ebd
00000350: bafc 293e d684 973e f21f 6ebe 2bb5 1cbe
00000360: 2ae9 99be c118 80bd 530e 37be 0594 be3a
00000370: edd4 513e ca9e 3f3d a981 2ebd 91db 7f3b
00000380: aaf9 1bbd e431 b4bd 1eb3 693b 7c98 a03e
00000390: 0094 e2bd ff5d 12be f52a 163e 69e2 0bbe
000003a0: 8d6d 4dbd 356a cbbb d452 73be 98fb 853e
000003b0: 8f85 393e 2954 dd3c c6bc 1abd 1715 25bd
000003c0: 40d0 8fbd 80fd a8ba 5bae 323e 3a58 05be
000003d0: f4d7 33be 2a49 9a3d 98a3 67be 9999 bcbd
000003e0: c18e 363e 6ac3 873e c403 afbe 4321 263e
000003f0: ae46 0cbe 4eea a0bd 21ce 733d 1bca b33d

rnn.weight_hh_l0 f4 [384, 128]
-0.22176462 0.037390966 0.08557469 -0.1808326 0.1147838 -0.2555164 -0.00089761167 0.13585919
0.11095619 0.24060449 -0.05761276 -0.06094234 -0.05317271 0.09023128 0.22561067 -0.1124567
0.14404236 0.13544665 0.13784128 0.08307338 0.033071905 0.052745987 -0.039308313 0.068292566
0.11756579 0.08731578 0.0016369306 0.1403586 -0.020685244 -0.24084593 0.19902436 0.15204844
-0.067733124 -0.043671507 -0.30808797 -0.18989928 -0.10080175 0.1638328 0.079452254 0.1749061
-0.12823491 -0.001413071 -0.3443807 -0.11663396 -0.12436761 -0.047080435 0.04457436 0.0052243453
-0.07769142 -0.17720836 0.16043758 0.12827192 0.057529226 0.24008185 -0.06846533 0.12529458
0.012704348 0.10315724 -0.011209986 0.1288953 0.021020824 -0.19927183 0.030237194 0.09618871
-0.1258043 -0.2810678 0.117084734 0.24295652 0.0047434685 -0.040381234 -0.047967277 0.15209047
0.2155057 -0.038009122 0.27031466 -0.14645383 -0.062252637 -0.17745121 -0.08944023 0.012221905
-0.25347218 0.06659719 0.03800857 -0.28457668 -0.013132875 0.121408835 -0.21888651 -0.14833282
-0.15580113 -0.2666204 -0.03658285 0.13839236 0.033371065 -0.05432992 -0.19076666 -0.12670904
0.07221947 0.21464562 0.026365248 -0.087287284 0.046967853 -0.039963406 -0.0046734125 -0.10749049
-0.06427626 0.097516745 -0.10925774 -0.10929529 0.13425274 -0.09443609 0.037310593 0.0047709276
-0.25536573 -0.12746207 -0.2561551 -0.15315416 0.2146979 -0.20981218 -0.078035444 0.033328608
-0.063513175 0.2032966 -0.06402877 0.031024992 -0.1709822 -0.34736088 -0.13895974 0.09820497
-0.1017269 0.056957603 0.03331724 -0.1500551 -0.25348067 0.19048643 0.057120375 0.016554497
-0.104618385 -0.09902418 0.20564151 -0.0020016748 0.11372322 -0.050124004 -0.3130777 -0.096457265
0.09299051 -0.02143736 -0.21492662 0.043562092 0.07019439 0.08696898 0.00065622263 -0.06700204
-0.0025153642 0.05605714 -0.06067278 -0.17816065 -0.20261313 -0.0063821413 -0.0012478805 -0.08201214
0.053607553 -0.1530192 -0.00883766 0.19885479 0.1326104 -0.041049037 0.007386923 0.06196947
-0.15906975 -0.16454555 0.12282518 0.0028279282 0.17552182 -0.29537037 0.089741334 0.20964995
-0.043159224 -0.21338563 0.010117568 -0.25274295 -0.05229257 -0.34076452 -0.14327675 0.028586628
-0.119215034 0.19693282 -0.27173975 0.28827438 -0.24627438 0.0061467285 -0.034464795 -0.018798735
0.031127589 0.23893873 -0.08925759 -0.10281573 0.1288181 0.1938421 -0.15293625 -0.042938437
-0.06704526 0.03744829 -0.046632033 -0.069070674 -0.13121709 -0.16079544 -0.045022096 -0.0035577004
0.019329548 0.03332906 0.15975893 -0.19156738 0.16246302 0.102759585 -0.095535636 -0.05949552
-0.050211802 0.1460673 0.10355256 -0.030810453 0.0141587835 -0.18364693 0.02583813 0.059526738
-0.030585803 -0.070418775 -0.06012686 0.015919339 -0.037259378 0.2084332 -0.09571095 -0.06731564
-0.07703813 0.14571755 0.28475896 -0.22910437 0.026770893 -0.051089175 0.24708907 -0.08016942
0.13071968 -0.14886405 -0.003650727 -0.040831868 -0.04062935 0.017838277 -0.04150642 0.18632044
0.057412524 0.024625165 -0.12706189 -0.22222602 -0.19033784 -0.057023052 0.12900792 -0.1500303
00000000: 4416 63be 4527 193d c841 af3d 2e2c 39be
00000010: c513 eb3d 0cd3 82be b34d 6bba ac1e 0b3e
00000020: 003d e33d 0661 763e 5cfb 6bbd ad9e 79bd
00000030: a1cb 59bd 2dcb b83d 7c06 673e b34f e6bd
00000040: d77f 133e 87b2 0a3e 4426 0d3e 6022 aa3d
00000050: 6876 073d 2d0c 583d c101 21bd f9dc 8b3d
00000060: 55c6 f03d 9ed2 b23d 478e d63a 2aba 0f3e
00000070: 1a74 a9bc 51a0 76be 0bcd 4b3e 96b2 1b3e
00000080: aab7 8abd e5e0 32bd b5bd 9dbe f574 42be
00000090: 2671 cebd c9c3 273e ddb7 a23d 961a 333e
000000a0: 0350 03be cb36 b9ba ab52 b0be c9dd eebd
000000b0: 72b4 febd 6ad7 40bd 9b93 363d fc30 ab3b
000000c0: ae1c 9fbd 1c76 35be c049 243e b759 033e
000000d0: c4a3 6b3d 04d8 753e 8d37 8cbd 394d 003e
000000e0: e625 503c 1a44 d33d 17aa 37bc 21fd 033e
000000f0: dd33 ac3c ea0d 4cbe feb3 f73c 96fe c43d
00000100: d8d2 00be 1ee8 8fbe 1fca ef3d 98c9 783e
00000110: 196f 9b3b cb66 25bd 5679 44bd 9bbd 1b3e
00000120: 87ad 5c3e 74af 1bbd af66 8a3e fef7 15be
00000130: 9ffc 7ebd c5b5 35be 702c b7bd 633e 483c
00000140: 1bc7 81be 1c64 883d e0ae 1b3d 09b4 91be
00000150: 452b 57bc 32a5 f83d c923 60be 8fe4 17be
00000160: 558a 1fbe 7882 88be e6d7 15bd bab6 0d3e
00000170: 19b0 083d 0d89 5ebd 5658 43be 04c0 01be
00000180: cde7 933d 10cc 5b3e effb d73c adc3 b2bd
00000190: 5d61 403d abb0 23bd 6d23 99bb f923 dcbd
000001a0: 46a3 83bd dcb6 c73d 86c2 dfbd 36d6 dfbd
000001b0: 8d79 093e b567 c1bd fed2 183d 7155 9c3b
000001c0: 4cbf 82be 6b85 02be c326 83be 72d4 1cbe
000001d0: c4d9 5b3e 01d9 56be 0cd1 9fbd 9483 083d
000001e0: 3213 82bd fc2c 503e 8421 83bd 2028 fe3c
000001f0: f515 2fbe 49d9 b1be 764b 0ebe b01f c93d
00000200: 3156 d0bd 604c 693d a977 083d 0ba8 19be
00000210: 38c8 81be e00e 433e 0ef7 693d 4c9d 873c
00000220: 2a42 d6bd 30cd cabd b093 523e 882e 03bb
00000230: b8e7 e83d d44e 4dbd b84b a0be 638b c5bd
00000240: cf71 be3d 679d afbc b915 5cbe 2a6e 323d
00000250: 14c2 8f3d cb1c b23d 5b06 2c3a 5e38 89bd
00000260: cfd8 24bb 2c9c 653d 0584 78bd bf6f 36be
00000270: d179 4fbe 4821 d1bb ec8f a3ba fbf5 a7bd
00000280: 9893 5b3d 11b1 1cbe d5cb 10bc 97a0 4b3e
00000290: 05cb 073e 0923 28bd 000e f23b b3d3 7d3d
000002a0: 2ee3 22be a17e 28be c58b fb3d c354 393b
000002b0: febb 333e c93a 97be 4eca b73d 7aae 563e
000002c0: bac7 30bd c381 5abe 28c4 253c 8667 81be
000002d0: bc30 56bd b078 aebe 24b7 12be 812e ea3c
000002e0: 0327 f4bd c2a8 493e 7921 8bbe b398 933e
000002f0: 5a2f 7cbe 7f6a c93b f52a 0dbd ceff 99bc
00000300: 49ff fe3c 5bac 743e afcc b6bd 0e91 d2bd
00000310: e4e8 033e 8b7e 463e 529b 1cbe 37e0 2fbd
00000320: 064f 89bd 6163 193d 3b01 3fbd ed74 8dbd
00000330: c65d 06be 8fa7 24be 1769 38bd 4f28 69bb
00000340: 0059 9e3c 0d84 083d d897 233e 3d2a 44be
00000350: b55c 263e 9e73 d23d 30a8 c3bd 93b1 73bd
00000360: e4aa 4dbd ab92 153e 5d13 d43d 3466 fcbc
00000370: 3efa 673c f10d 3cbe 7caa d33c 4fd2 733d
00000380: 148f fabc b837 90bd 9547 76bd 4669 823c
00000390: 4a9d 18bd 836f 553e 1a04 c4bd c8dc 89bd
000003a0: 2bc6 9dbd fb36 153e edcb 913e 569a 6abe
000003b0: a24e db3c e242 51bd eb04 7d3e dd2f a4bd
000003c0: 61db 053e d16f 18be 0941 6fbb 513f 27bd
000003d0: f66a 26bd 9421 923c a302 2abd c9ca 3e3e
000003e0: 6529 6b3d b7ba c93c 831c 02be 388f 63be
000003f0: ece7 42be 0191 69bd a71a 043e 8ba1 19be

rnn.bias_ih_l0 f4 [384]
-0.1501709 -0.16086482 -0.19550431 -0.27978605 -0.21526642 -0.2397962 -0.25982553 -0.15294409
-0.2877396 -0.1257621 -0.22961183 -0.2989505 -0.09063175 -0.13367324 -0.22833118 -0.2561839
-0.16767657 -0.27274692 -0.009921675 -0.21214572 -0.35003266 -0.19234309 -0.059471205 -0.3748922
-0.08670148 -0.11387417 -0.22548437 -0.25571096 -0.23512462 -0.03634401 -0.27100307 -0.04169942
-0.1708724 -0.11119207 -0.0940449 -0.24473202 -0.2442779 -0.28664005 -0.4322352 -0.11457146
-0.08256666 -0.2821482 -0.02775609 -0.2261444 -0.155908 -0.17922331 -0.26812294 -0.35715458
-0.07832266 -0.17949179 -0.0013004999 -0.24262917 -0.2671332 -0.13072222 -0.28086647 -0.3703993
-0.28882512 -0.09360285 -0.14159179 -0.024445297 -0.13193251 -0.27285123 -0.2965779 -0.07849358
-0.22350197 -0.3124938 -0.30747995 -0.20507576 -0.1836704 -0.1532708 -0.19922617 -0.3551547
-0.055719495 -0.087604344 -0.10948193 -0.36652467 -0.29092577 -0.32288092 -0.14993732 -0.15931717
-0.1789159 -0.21498063 -0.3261146 -0.36403143 -0.13212264 -0.091850564 -0.27398214 -0.121416196
-0.1603887 -0.2296778 -0.31834164 -0.25814262 0.03491466 -0.29185498 -0.082885735 -0.06264703
-0.105646335 -0.12625018 -0.23284476 0.038161006 -0.14662628 -0.04197657 -0.16926289 -0.24015072
-0.31043485 -0.14809528 -0.22347994 -0.34908965 -0.18848342 -0.29811275 -0.22448486 -0.03568911
-0.025941646 0.020051474 -0.28500983 -0.26769635 -0.044404566 -0.28490746 -0.16294245 -0.03810703
-0.09747972 -0.23175387 -0.107149296 -0.044064656 -0.036983605 -0.17036048 -0.24184273 -0.21510354
-0.5026271 -0.36639193 -0.57220435 -0.3990996 -0.4762255 -0.49052382 -0.6454712 -0.4843363
-0.4449419 -0.33723006 -0.4586562 -0.437581 -0.46951336 -0.53160256 -0.55743706 -0.35704222
-0.2586957 -0.38302806 -0.31701207 -0.4664878 -0.6923217 -0.3423773 -0.29796085 -0.45716065
-0.2738999 -0.48905227 -0.24493298 -0.57751316 -0.5748641 -0.28600317 -0.4793575 -0.3066872
-0.34296507 -0.39631364 -0.5877631 -0.38915235 -0.49699086 -0.47082752 -0.4000377 -0.24968219
-0.3106814 -0.42529988 -0.4258094 -0.19089243 -0.5713393 -0.40923548 -0.3084513 -0.37780163
-0.44619298 -0.27016342 -0.24086852 -0.35912275 -0.4425285 -0.36202246 -0.4875317 -0.4786228
-0.3403175 -0.35144097 -0.35281777 -0.31353518 -0.24376541 -0.31702748 -0.4847299 -0.47683847
-0.45851877 -0.36556527 -0.5181802 -0.6095832 -0.5044033 -0.53172874 -0.39419538 -0.43569162
-0.43871987 -0.26061743 -0.35199332 -0.3710821 -0.40218255 -0.37314516 -0.37512377 -0.43172655
-0.33628777 -0.5007269 -0.42302218 -0.3998938 -0.46691307 -0.30210543 -0.40681177 -0.3481379
-0.50555325 -0.6228129 -0.48096454 -0.2649855 -0.44401488 -0.4571227 -0.42379615 -0.50883895
-0.49140143 -0.5076374 -0.28384686 -0.4841613 -0.3714769 -0.3958949 -0.53268284 -0.53431207
-0.40752983 -0.267604 -0.402545 -0.39054596 -0.49049923 -0.40721917 -0.27854314 -0.465833
-0.35056016 -0.4058733 -0.48467225 -0.32027528 -0.32571632 -0.24365537 -0.48114696 -0.31217158
-0.5069749 -0.37383935 -0.2862274 -0.36500207 -0.45166704 -0.34980482 -0.26277673 -0.36854714
00000000: 67c6 19be bfb9 24be 4832 48be 1e40 8fbe
00000010: cd6e 5cbe 238d 75be da07 85be 609d 1cbe
00000020: 9b52 93be c8c7 00be 5d1f 6bbe 0a10 99be
00000030: 249d b9bd a3e1 08be a6cf 69be 892a 83be
00000040: 68b3 2bbe 7ca5 8bbe 858e 22bc ba3c 59be
00000050: 7b37 b3be 96f5 44be 1498 73bd dff1 bfbe
00000060: 8c90 b1bd dc36 e9bd 60e5 66be 8cec 82be
00000070: 82c4 70be 75dd 14bd eac0 8abe 03cd 2abd
00000080: 2df9 2ebe abb8 e3bd 9d9a c0bd 089b 7abe
00000090: fc23 7abe 7cc2 92be ef4d ddbe 71a4 eabd
000000a0: b618 a9bd bb75 90be bd60 e3bc 6692 67be
000000b0: 59a6 1fbe 5186 37be 6947 89be f7dc b6be
000000c0: a167 a0bd b2cc 37be 8975 aaba c873 78be
000000d0: afc5 88be 0cdc 05be bbcd 8fbe faa4 bdbe
000000e0: e3e0 93be dab2 bfbd 70fd 10be 8141 c8bc
000000f0: 5119 07be 28b3 8bbe 0fd9 97be 3ec1 a0bd
00000100: b3dd 64be 30ff 9fbe 036e 9dbe 61ff 51be
00000110: 1814 3cbe 05f3 1cbe f201 4cbe d6d6 b5be
00000120: 203a 64bd e869 b3bd 1038 e0bd 1fa9 bbbe
00000130: 39f4 94be a650 a5be 2b89 19be 0a24 23be
00000140: bb35 37be e223 5cbe 7ef8 a6be 5462 babe
00000150: 284b 07be 261c bcbd 6347 8cbe 0ea9 f8bd
00000160: ef3c 24be a830 6bbe adfd a2be 452b 84be
00000170: ad02 0f3d 046e 95be ffbf a9bd 164d 80bd
00000180: 1b5d d8bd ba47 01be db6e 6ebe b74e 1c3d
00000190: 3325 16be a0ef 2bbd 4053 2dbe 12ea 75be
000001a0: 51f1 9ebe 4aa6 17be edd7 64be e1bb b2be
000001b0: cc01 41be 3ca2 98be 5cdf 65be bf2e 12bd
000001c0: 9383 d4bc fd42 a43c cfec 91be 7f0f 89be
000001d0: 90e1 35bd 64df 91be 63da 26be 1e16 1cbd
000001e0: 73a3 c7bd e350 6dbe 1771 dbbd 247d 34bd
000001f0: 1f7c 17bd fa72 2ebe 9fa5 77be 1a44 5cbe
00000200: 2bac 00bf b997 bbbe fc7b 12bf c856 ccbe
00000210: d4d3 f3be f025 fbbe 9a3d 25bf edfa f7be
00000220: 6dcf e3be 6ba9 acbe fcd4 eabe 9e0a e0be
00000230: 0e64 f0be 1b17 08bf 32b4 0ebf 3dce b6be
00000240: c373 84be 411c c4be 684f a2be 7dd7 eebe
00000250: ff3b 31bf 144c afbe 538e 98be f610 eabe
00000260: 9c3c 8cbe 0f65 fabe b6cf 7abe e7d7 13bf
00000270: 4b2a 13bf 026f 92be 596e f5be 1b06 9dbe
00000280: 1e99 afbe 9fe9 cabe a477 16bf fa3e c7be
00000290: 9675 febe 4e10 f1be bed1 ccbe b0ac 7fbe
000002a0: a211 9fbe e8c0 d9be b103 dabe 4e79 43be
000002b0: 4b43 12bf 5087 d1be 54ed 9dbe 376f c1be
000002c0: 6873 e4be dc52 8abe 3da6 76be f0de b7be
000002d0: 1893 e2be 025b b9be c19d f9be 0c0e f5be
000002e0: 183e aebe 12f0 b3be 88a4 b4be af87 a0be
000002f0: a49d 79be 6d51 a2be 842e f8be 2c24 f4be
00000300: f9c2 eabe 5f2b bbbe 75a7 04bf a50d 1cbf
00000310: 9320 01bf 601f 08bf fad3 c9be f912 dfbe
00000320: e49f e0be a66f 85be 7838 b4be 79fe bdbe
00000330: dfea cdbe e20c bfbe 3910 c0be 430b ddbe
00000340: e92d acbe a32f 00bf 5d96 d8be e1be ccbe
00000350: 3b0f efbe 90ad 9abe a249 d0be 213f b2be
00000360: f06b 01bf ab70 1fbf fc40 f6be 2eac 87be
00000370: eb55 e3be fd0b eabe cffb d8be 4543 02bf
00000380: f898 fbbe 86f4 01bf 6054 91be fde3 f7be
00000390: 3832 bebe bdb2 cabe e75d 08bf adc8 08bf
000003a0: c0a7 d0be 6403 89be 611a cebe a4f5 c7be
000003b0: b722 fbbe 087f d0be 359d 8ebe aa81 eebe
000003c0: 9f7c b3be a0ce cfbe f626 f8be 1ffb a3be
000003d0: 4ac4 a6be cb80 79be e558 f6be f4d4 9fbe
000003e0: 1bc9 01bf df67 bfbe 668c 92be 8de1 babe
000003f0: e740 e7be 9e19 b3be ac8a 86be 36b2 bcbe

rnn.bias_hh_l0 f4 [384]
-0.17491041 -0.09032534 -0.28568146 -0.26079234 -0.16282599 -0.27984056 -0.23954242 -0.06865655
-0.3969894 -0.1894868 -0.20380521 -0.25891536 -0.08736613 -0.16485634 -0.081871755 -0.15842922
-0.24381536 -0.13269548 -0.08017054 -0.25957018 -0.35371527 -0.18626858 -0.043967504 -0.21406557
-0.21008056 -0.009409333 -0.14076032 -0.2534035 -0.18403736 -0.115281016 -0.2184303 -0.1613536
-0.15124148 -0.18510307 -0.13041732 -0.28102642 -0.27245304 -0.31798628 -0.3395632 -0.06987924
-0.14898257 -0.26239645 -0.08717387 -0.11576146 -0.06883044 -0.27263665 -0.26213923 -0.2575196
0.03394245 -0.12270293 -0.16046113 -0.27853736 -0.18584284 -0.11012036 -0.42003936 -0.3673588
-0.19289292 -0.09388365 -0.18676652 0.09005004 -0.18741518 -0.23017515 -0.21434413 -0.132932
-0.17638622 -0.34626415 -0.19421461 -0.19994678 -0.1419819 -0.15643734 -0.14970094 -0.34522203
-0.020434618 -0.1696178 -0.18963434 -0.27770525 -0.3032681 -0.36481795 -0.21717884 -0.16198175
-0.14862747 -0.32779175 -0.3356242 -0.3044259 -0.21046156 -0.24504365 -0.38473803 -0.10059649
-0.014475196 -0.25993973 -0.3813258 -0.26614967 -0.040440094 -0.19183886 -0.1970275 -0.09284731
-0.019103663 -0.118712805 -0.258465 0.05977604 -0.24660364 0.003907005 -0.2755093 -0.24992041
-0.37842038 -0.1163083 -0.22632398 -0.23000363 -0.21204026 -0.42859736 -0.13344394 -0.058547705
-0.13417695 0.08630483 -0.24031937 -0.30745587 -0.037084036 -0.3190471 -0.28719357 0.0628299
-0.068472326 -0.20110422 -0.22908749 -0.20461917 -0.11090115 -0.25745946 -0.15680642 -0.14045942
-0.5380675 -0.3964681 -0.45506087 -0.54949987 -0.4732905 -0.4900031 -0.50688344 -0.49713838
-0.4415689 -0.3528428 -0.5537235 -0.5574372 -0.48648158 -0.39367074 -0.50887996 -0.41197413
-0.3061491 -0.4263542 -0.3956829 -0.48916692 -0.64950997 -0.4006984 -0.37081856 -0.48691863
-0.39445373 -0.4921293 -0.380305 -0.54610646 -0.6068492 -0.27428803 -0.47797686 -0.38190272
-0.4038741 -0.34269747 -0.6439257 -0.3862962 -0.47776636 -0.4179591 -0.52813345 -0.28955552
-0.20355849 -0.46053773 -0.41455612 -0.2777575 -0.54897994 -0.53957766 -0.30679142 -0.22242746
-0.55884916 -0.41053 -0.3613933 -0.42709586 -0.55770636 -0.5146255 -0.53154016 -0.49488834
-0.40437648 -0.38324705 -0.33631477 -0.40813228 -0.34514323 -0.43142983 -0.336395 -0.37722942
-0.33371785 -0.28382328 -0.5101424 -0.6394115 -0.48488465 -0.5523553 -0.43850994 -0.32464632
-0.3751767 -0.35660705 -0.36684763 -0.40869364 -0.40544042 -0.29640457 -0.31765288 -0.6068034
-0.40113103 -0.48620364 -0.48612684 -0.3796505 -0.44066262 -0.32961094 -0.43987852 -0.31585637
-0.51657844 -0.60945284 -0.4031176 -0.19601636 -0.338227 -0.38645995 -0.29091159 -0.55692387
-0.5842181 -0.47101012 -0.37995726 -0.554805 -0.41554496 -0.40544114 -0.5705981 -0.5175646
-0.35518336 -0.28629857 -0.43283182 -0.3848687 -0.4185895 -0.42470434 -0.3099153 -0.39413962
-0.4244427 -0.383411 -0.45104447 -0.33462083 -0.24047647 -0.20791419 -0.39286444 -0.35299796
-0.5236507 -0.30997238 -0.43841073 -0.26234233 -0.33780488 -0.4078998 -0.37452844 -0.35466877
00000000: b71b 33be 7efc b8bd d744 92be 9386 85be
00000010: dbbb 26be 4347 8fbe 9c4a 75be ce9b 8cbd
00000020: 3242 cbbe d408 42be 50b2 50be 8e90 84be
00000030: 03ed b2bd 1ad0 28be 61ac a7bd 453b 22be
00000040: bcaa 79be 53e1 07be 7430 a4bd 62e6 84be
00000050: 2b1a b5be 31bd 3ebe 4517 34bd 0134 5bbe
00000060: 5c1f 57be 9a29 1abc 7923 10be 1bbe 81be
00000070: 4a74 3cbe 7418 ecbd 31ac 5fbe e139 25be
00000080: 0cdf 1abe a98b 3dbe 1e8c 05be b2e2 8fbe
00000090: f77e 8bbe 19cf a2be 3adb adbe d91c 8fbd
000000a0: e38e 18be d458 86be 3788 b2bd 5814 edbd
000000b0: f9f6 8cbd 0897 8bbe 1d37 86be 9cd9 83be
000000c0: 3d07 0b3d ac4b fbbd ec4f 24be 739c 8ebe
000000d0: 964d 3ebe c986 e1bd 660f d7be 7416 bcbe
000000e0: b985 45be 1246 c0bd b93f 3fbe 286c b83d
000000f0: c4e9 3fbe 09b3 6bbe 077d 5bbe 541f 08be
00000100: 979e 34be 8949 b1be 32e0 46be d9be 4cbe
00000110: b463 11be 1c31 20be 344b 19be f1c0 b0be
00000120: 8066 a7bc 4ab0 2dbe 812f 42be 622f 8ebe
00000130: f545 9bbe 6bc9 babe 2164 5ebe 8bde 25be
00000140: cd31 18be 52d4 a7be efd6 abbe b6dd 9bbe
00000150: 3c83 57be b9ec 7abe 62fc c4be 8805 cebd
00000160: 5f29 6dbc d216 85be 233d c3be c544 88be
00000170: 83a4 25bd 6871 44be 94c1 49be bb26 bebd
00000180: 497f 9cbc b31f f3bd 8655 84be b9d7 743d
00000190: aa85 7cbe 5506 803b 8e0f 8dbe 23eb 7fbe
000001a0: 51c0 c1be 0c33 eebd 79c1 67be 1286 6bbe
000001b0: 1521 59be 1d71 dbbe 87a5 08be b8cf 6fbd
000001c0: af65 09be 96c0 b03d 4816 76be db6a 9dbe
000001d0: 6ee5 17bd 245a a3be 090b 93be f6ac 803d
000001e0: 383b 8cbd 44ee 4dbe e995 6abe b087 51be
000001f0: 2420 e3bd bad1 83be dd91 20be 98d4 0fbe
00000200: cbbe 09bf defd cabe bdfd e8be 06ac 0cbf
00000210: 2253 f2be b0e1 fabe 1dc3 01bf ec88 febe
00000220: 5215 e2be d0a7 b4be d3c0 0dbf 34b4 0ebf
00000230: 1d14 f9be 368f c9be f545 02bf 46ee d2be
00000240: 93bf 9cbe 194b dabe f396 cabe 1674 fabe
00000250: 4946 26bf 5728 cdbe eedb bdbe 664d f9be
00000260: d7f5 c9be 5ff8 fbbe 56b7 c2be a2cd 0bbf
00000270: 785a 1bbf 7b6f 8cbe 62b9 f4be c188 c3be
00000280: 96c8 cebe 0b76 afbe 51d8 24bf 9ec8 c5be
00000290: cb9d f4be bcfe d5be c133 07bf 9f40 94be
000002a0: a371 50be 9acb ebbe b340 d4be 3b36 8ebe
000002b0: f389 0cbf c321 0abf c413 9dbe 06c4 63be
000002c0: bd10 0fbf fd30 d2be 8b08 b9be 4fac dabe
000002d0: d8c5 0ebf 7fbe 03bf 0413 08bf 0162 fdbe
000002e0: 6f0a cfbe f538 c4be 7331 acbe b7f6 d0be
000002f0: 9db6 b0be 5fe4 dcbe f73b acbe 3724 c1be
00000300: 11dd aabe 4951 91be b198 02bf 79b0 23bf
00000310: cd42 f8be 2867 0dbf 6084 e0be 0b38 a6be
00000320: 2917 c0be 3395 b6be 74d3 bbbe 4b40 d1be
00000330: e395 cfbe 57c2 97be 66a3 a2be 7857 1bbf
00000340: 0c61 cdbe afef f8be 9ee5 f8be 8d61 c2be
00000350: 889e e1be c4c2 a8be c237 e1be edb7 a1be
00000360: 7c3e 04bf 1a05 1cbf 6e65 cebe 83b8 48be
00000370: 172c adbe 14de c5be 5df2 94be 9092 0ebf
00000380: 518f 15bf 3d28 f1be c289 c2be b307 0ebf
00000390: 4fc2 d4be fb95 cfbe b812 12bf 1d7f 04bf
000003a0: 98da b5be ba95 92be 229c ddbe 830d c5be
000003b0: 5d51 d6be d972 d9be 38ad 9ebe abcc c9be
000003c0: 8e50 d9be 724e c4be 4def e6be 6c53 abbe
000003d0: 773f 76be 75e7 54be 8725 c9be 26bc b4be
000003e0: f90d 06bf b3b4 9ebe 5f77 e0be bc51 86be
000003f0: c3f4 acbe 3ed8 d0be 31c2 bfbe 2597 b5be

decoder.weight f4 [1, 128]
0.17411424 -0.22315682 0.6154353 0.7758068 0.3689327 -0.16014653 -0.3697573 -0.4475137
-0.28350487 -0.27616823 -0.2098485 -0.25736663 -0.10176153 -0.15398182 -0.3622954 -0.27374592
-0.2997675 -0.16877337 -0.1013631 -0.1985006 -0.2936493 -0.038145382 -0.109143905 -0.10032456
-0.29397404 -0.4171908 -0.37104356 -0.3395041 -0.28490487 -0.4843209 -0.50908744 -0.36722586
-0.51565284 -0.4701149 -0.52674377 -0.40268978 -0.4086697 -0.4103427 -0.48379603 -0.3574329
-0.32555136 -0.383689 -0.39070654 -0.42578378 -0.2759663 -0.23431484 -0.33399874 -0.2714382
-0.18717736 -0.27123263 -0.24059272 -0.23926967 -0.23192312 -0.15752241 -0.23540753 -0.19173363
-0.21363373 -0.10713688 -0.04779302 -0.17707218 -0.0013780617 0.021662926 0.00091444707 -0.040789146
-0.011213199 0.012112177 -0.024976183 -0.019536588 0.062365636 -0.05990196 0.04351596 0.08550484
0.0015198966 0.11440968 0.0944261 0.09703707 0.07363355 0.19198893 0.060193084 0.08430639
0.16521648 0.21639344 0.15969877 0.24038628 0.12221779 0.14474145 0.12383989 0.22889768
0.18121774 0.25814304 0.18989941 0.12965852 0.30109897 0.27726108 0.2384598 0.15742601
0.22803472 0.1742912 0.16240978 0.2529919 0.32803655 0.20409006 0.17489083 0.18453978
0.32094723 0.23622306 0.33648577 0.22709534 0.28980753 0.22059648 0.18897673 0.36056232
0.2916193 0.29005986 0.35300082 0.3256409 0.3379902 0.20873219 0.3610206 0.33996397
0.3522746 0.28393018 0.32830623 0.35884905 0.2189786 0.2117537 0.29335228 0.23582262
00000000: 014b 323e 3983 64be 2b8d 1d3f 469b 463f
00000010: bfe4 bc3e 74fd 23be d450 bdbe 8420 e5be
00000020: 8d27 91be ec65 8dbe 86e2 56be 8fc5 83be
00000030: 5968 d0bd 69ad 1dbe c87e b9be 6d28 8cbe
00000040: 207b 99be edd2 2cbe 7597 cfbd be43 4bbe
00000050: 3359 96be 553e 1cbd d786 dfbd f776 cdbd
00000060: c483 96be 089a d5be 6cf9 bdbe 7bd3 adbe
00000070: 0ddf 91be e9f8 f7be 8e53 02bf 0705 bcbe
00000080: d301 04bf e6b2 f0be aed8 06bf 5b2d cebe
00000090: 283d d1be 7018 d2be 1db4 f7be 7201 b7be
000000a0: abae a6be e272 c4be b00a c8be 5500 dabe
000000b0: 744b 8dbe 3bf0 6fbe e201 abbe f3f9 8abe
000000c0: 6cab 3fbe 01df 8abe f05d 76be 1c03 75be
000000d0: 417d 6dbe 8e4d 21be ac0e 71be d255 44be
000000e0: cdc2 5abe 956a dbbd 9dc2 43bd 6952 35be
000000f0: 14a0 b4ba 7376 b13c 81b7 6f3a 8512 27bd
00000100: 91b7 37bc 2772 463c da9a ccbc 320b a0bc
00000110: 1c73 7f3d c25b 75bd cb3d 323d 291d af3d
00000120: 4437 c73a 9f4f ea3d 7962 c13d 5fbb c63d
00000130: 30cd 963d bf98 443e 068d 763d d4a8 ac3d
00000140: 822e 293e 3e96 5d3e 1388 233e d227 763e
00000150: 524d fa3d 1a37 143e c59f fd3d 2764 6a3e
00000160: 2591 393e 532b 843e fe74 423e 34c5 043e
00000170: a529 9a3e 2af5 8d3e ce2e 743e 4934 213e
00000180: ef81 693e 6479 323e c04e 263e 2888 813e
00000190: 68f4 a73e fcfc 503e 9516 333e fff7 3c3e
000001a0: 3253 a43e 75e4 713e dd47 ac3e ae8b 683e
000001b0: a761 943e 0be4 613e 1e83 413e a09b b83e
000001c0: 204f 953e ba82 943e 86bc b43e 67ba a63e
000001d0: 0d0d ad3e e4bd 553e b1d7 b83e c20f ae3e
000001e0: 565d b43e 4c5f 913e c117 a83e 10bb b73e
000001f0: ed3b 603e f6d5 583e 4532 963e 7c7b 713e
